bid_model_scripted.pt (torch, 81784 bytes, 9 tensors)

weight f4 [128, 50]
00000000: e96c 563d 8de7 0fbd 0a61 a33d fe1b df3d
00000010: 5e8a 113e a894 27bc a75e 133e 2536 0dbd
00000020: 7aa1 71bd d422 983d 0bda 87bd 1d54 823c
00000030: b11b 6a3d 24c4 893d d020 063d 6b94 94bd
00000040: e679 393d 0bc4 e9bc 6963 b43d 3f8a 1e3e
00000050: e349 15bd 8c68 fa3c f110 003e 1600 c6bb
00000060: 7223 023d b7e2 233e 6828 123e ab6e 7f3c
00000070: 4f14 2c3e 7f24 6ebb ace1 0c3e b05f adbd
00000080: 681e 0b3d 8fb6 b43d 3a11 013e 3900 153e
00000090: 1ee6 c93d d65d 043e b2f1 363d 73db 82bc
000000a0: 217c 28bc 6bbb 373d 84aa 023e aa8f b93d
000000b0: 78d1 a3bd c136 dbbd d935 44bc 1ddd 883d
000000c0: bafc 013d 24ff 673d de67 a7bd 7745 f6bc
000000d0: 7959 ea3d e179 b5bd bf96 d0bd 784e 1f3d
000000e0: 41f5 17bd b375 d93d f053 943d 371e f63d
000000f0: 02a4 003e 9f16 3d3d dbff 8b3d 35f6 a0bd
00000100: d99b a6bc 1681 113e 94be 52bd 0191 c1bd
00000110: 712f 143e 3b83 a5bc 5050 c1bd 787a 133e
00000120: fe9b ef3d 7e30 c5bd 5f9e 87bc 6a69 f23d
00000130: 294e 86bc c879 0f3d c652 b73d b7e5 e7bd
00000140: 34cb 063e f613 e13c 92cd 903d 78eb fdbd
00000150: c91f d6bb 8c5a dc3d 41f3 af3d 5366 00bd
00000160: 5d9f 65bd 7dbf 1ebb 9fcc b63d c95c 0a3e
00000170: 4d03 9f3b 1848 fa3d 3e93 e33d b9ce 443d
00000180: 3850 ed3d 1e7d fd3d 7b19 2bbd 99c4 dbbd
00000190: 3a55 953d 5a84 133e 50b9 193c 64a6 afbd
000001a0: cc0e 8f3d 8dca d1bd 57a3 153e b23e 86bc
000001b0: babf 69bd cfee 2c3b 0b1c e33d 730e 283e
000001c0: 427e 8cba 7118 d7bd 9f55 c2bd 6941 dc3b
000001d0: e976 043c 8beb 2a3e 24e0 bfbd 43e7 133d
000001e0: 9027 063e 1afe 74bd 4662 8c3d 4e50 c5bc
000001f0: 4923 213e d015 5bbd c8cf 1d3e 6154 c5bd
00000200: 3afd 0d3d c401 da3b b69f 253d eece 0e3b
00000210: b536 dd3d 404b 6d3c cfa4 19bd 7dac 473c
00000220: f1b3 98bd 1634 ee3d e542 fcbb cb97 743d
00000230: 0710 073e 5424 bc3d e0c8 6a3c 31fc c2bd
00000240: 4ac1 053e ba3c 40bd 3838 da3c 694c e63d
00000250: 4a02 203e 0ec4 603d 32c2 4e3d b5ea 34bd
00000260: 25b3 bf3d bb0a 37bd fb3d e5bd d89f a83a
00000270: 5535 793d b029 8e3d 1e83 1c3d 41ff 2ebd
00000280: 2853 b23d 44fc 083e acde c8bd e87e 60bd
00000290: 9e7e f4bd a7e7 71bd d468 f33d 9c60 d93c
000002a0: 6845 2dbc e058 d9bc 44ec a6bd ae2f 9ebc
000002b0: 4607 14be 122b b33d 7c60 c7bd 854d 79bd
000002c0: 6c78 38bd 5c80 ec3d 3f5f eb3d ef37 3bbc
000002d0: 4a46 f1bd b0f4 e4bd 319d adbd ab05 d6bc
000002e0: 2e29 67bd c51e 023e ab29 fdbd 94e0 02bd
000002f0: e23f dd3d 6d06 443c cf6d 983d 5e9f 03be
00000300: f5f9 f7bd 6c3c 8f3d 1341 123d 2b47 fabc
00000310: 5a72 b13c 7a94 8b3c 49ec ef3d 6baa a5bd
00000320: b9d6 1bbd 25bd 2e3e f52d f5bc 6f21 a7bc
00000330: fc69 0c3e 7bf1 c3bd 5965 373d 8d37 e23d
00000340: c076 583d 03d6 cabc 0e58 c83d 1a40 91bd
00000350: d12c 883d 259b 81bd f481 e83d bfdb a73d
00000360: f04d 243e d6a3 bf3c e33a bcbc 95c5 183e
00000370: 4011 c6bd 64bc 103e 9930 0b3e 3423 ddbd
00000380: de4d 293e 598a 2cbd 5468 f3bd 34d9 a2b9
00000390: df3d bbbd 88a0 ddbd a875 983c 0830 aa3d
000003a0: d7c8 623d 5825 98bc e960 52bd bce4 78bd
000003b0: e71a 49bd 2ca9 c13d 147c f63b 1b66 3bbd
000003c0: f20d 0e3e 453e 063e a208 a63d 4828 87b9
000003d0: 7224 24bc 2812 a73d a41c 273e e550 bc3d
000003e0: 4101 e5bc ad8a afbd fad6 1bbd f61b f6bd
000003f0: c4ee bdbb 3ec2 7ebd b68c 8cbc 5a57 96bd
0.05234996 -0.035132933 0.07977493 0.10894011 0.14212939 -0.0102283135 0.14391576 -0.034475464
-0.058991887 0.07428518 -0.06633385 0.015909249 0.057155315 0.06726864 0.032746136 -0.07254871
0.045282267 -0.028535863 0.088080235 0.15482424 -0.036447417 0.03056743 0.12506463 -0.0060424907
0.031772085 0.16004454 0.14273226 0.01559035 0.16804622 -0.0036337671 0.13757962 -0.084655166
0.033964545 0.08823883 0.12604228 0.14550866 0.098583445 0.1292642 0.044664092 -0.015973782
-0.010283501 0.04485647 0.12760359 0.09060605 -0.07998937 -0.10703803 -0.011975729 0.06682799
0.03173516 0.056639805 -0.08174108 -0.03006242 0.11442847 -0.08861137 -0.101850025 0.038893193
-0.037099127 0.106181525 0.07242572 0.12017482 0.12562564 0.04616415 0.0683591 -0.0785946
-0.020337986 0.14209399 -0.05145128 -0.094514854 0.14471222 -0.020204177 -0.094391465 0.14402187
0.11699675 -0.0962839 -0.01655501 0.118365124 -0.016394692 0.03502825 0.08951335 -0.113231115
0.13163453 0.027475338 0.070704594 -0.12398428 -0.006534551 0.10759458 0.08591319 -0.031347584
-0.056060184 -0.0024223023 0.08925747 0.13511957 0.0048526884 0.12220782 0.111120686 0.04804871
0.11587566 0.1237738 -0.041772347 -0.107308574 0.07291646 0.14405957 0.009382561 -0.08576658
0.06985244 -0.102437116 0.1461309 -0.016387317 -0.05706761 0.0026387458 0.11089333 0.16411762
-0.001071878 -0.10502709 -0.09488987 0.0067216647 0.008084991 0.16691415 -0.09368923 0.03610922
0.1310103 -0.059812643 0.06854682 -0.024086144 0.15736116 -0.0534876 0.15411294 -0.096352346
0.034665324 0.0066530425 0.040435515 0.002179082 0.1080145 0.014483273 -0.03751069 0.0121871205
-0.07456196 0.11631028 -0.007698404 0.059715074 0.13189708 0.091866165 0.014330119 -0.09520758
0.13062015 -0.046932913 0.026638135 0.11245043 0.15625873 0.054874472 0.050478168 -0.044169147
0.09360341 -0.044687968 -0.111934625 0.001286502 0.060841877 0.06941545 0.03821098 -0.042723898
0.08707267 0.13377482 -0.09808096 -0.054808527 -0.11938213 -0.05905881 0.11885229 0.026535325
-0.01057563 -0.026531637 -0.08150533 -0.019309845 -0.144559 0.087484494 -0.097352 -0.060864944
-0.04503672 0.1154792 0.11492776 -0.01142691 -0.11780985 -0.11179483 -0.084772475 -0.02612575
-0.056435756 0.1270705 -0.12361463 -0.031952456 0.108032 0.011964423 0.07442819 -0.12853763
-0.121082224 0.069939464 0.03570659 -0.030551514 0.021660972 0.017038573 0.1171499 -0.08089145
-0.038046572 0.1706434 -0.02992914 -0.020401685 0.13712305 -0.09567543 0.044774387 0.11045752
0.052847624 -0.024760252 0.0978242 -0.070923045 0.06649173 -0.063284196 0.113529116 0.0819621
0.16045356 0.023393553 -0.022977298 0.14919122 -0.09671259 0.14134365 0.13592757 -0.1079773
0.1653361 -0.042124126 -0.118851334 -0.00031060877 -0.0914266 -0.108216345 0.01861079 0.083099425
0.055367317 -0.018572494 -0.051361952 -0.060765013 -0.04909792 0.09456095 0.0075221155 -0.045751672
0.13872507 0.13109691 0.08107115 -0.00025779218 -0.010018455 0.0815776 0.1631952 0.09195117
-0.0279547 -0.08571372 -0.038046815 -0.12017052 -0.0057962853 -0.062196963 -0.01715694 -0.0734088

bias f4 [128]
00000000: 8e56 153c 676b 533d e405 db3d 8cf9 d2bd
00000010: 047f c6bc a26a 7fbb 0958 0a3e ce48 a6bd
00000020: b370 d43d cc3e c43d 0c34 f0b8 f922 a7bb
00000030: 7d7c 963d cca5 cebd a6fc b23d 73c0 0dbd
00000040: 0cca 6a3d 5015 6bbd af1c ba3d e9ad ccbd
00000050: 8bf6 4d3d 9064 2c3d 291b bb3d 9717 74bd
00000060: ecbb 82bd 4904 bb3c 1e05 bbbd 20dc d0bd
00000070: 409a d7bd 4e27 c1bd b5fe 1e3d 735b 843d
00000080: 05d0 4dbd 2682 1a3e 8ff3 163e 4102 e93d
00000090: a1a6 783d 3186 f6bd 6f70 563d 6785 b93d
000000a0: 6293 a13d 63cd 8a3d 7ffd c6bd 7681 8d3d
000000b0: 0c69 eabd ce63 913d 2ac8 543d f594 4d3d
000000c0: 76e3 b43d c559 c13d 26f7 1e3d f7c3 fe3d
000000d0: 66e0 f73d 5ad4 063d 4f2d 813d 9c91 d7bd
000000e0: d968 293e 9a30 dd3d 2e0f d3bd 67db e03d
000000f0: 512e 3b3d 6bb4 fc3d 1378 2a3e 0e47 7abd
00000100: 149e 83bc 9fc0 023e c590 093c 720a da3d
00000110: bb96 5dbc 1515 be3d 3817 6ebd 0917 363e
00000120: 42b0 ce3d 663a d93d 9b64 cfbd 4807 0e3d
00000130: 8169 a93c b706 65bd 99b2 6abd 861f 1c3e
00000140: bee8 ab3d 53ac 223e 2a90 f4bd 91a7 7abc
00000150: 6b95 a33d e029 cf39 72c0 853d 760f ba3d
00000160: 659c 0f3e 3a1f 243e 2ce7 ae3d 1803 f43d
00000170: a252 243e 4ce9 1fbd d213 06bd ddaf 633d
00000180: 37ed 58bd 8ea0 d6bc d62d 7a3c bace d5bd
00000190: 07ee af3d 8a2d 98bd 576b af3d 7eb8 c53d
000001a0: ce3f 553d db27 043c 3a9c 02be 4d2f 1d3d
000001b0: f805 2d3d d5e9 fb3d 4469 a3bd a598 e9bd
000001c0: 39df d9bd 5fca c7bd d8a1 0fbb b374 2bbc
000001d0: 7aac 273d 5531 e5bc 37a3 d0bd d669 4a3b
000001e0: 636b 853d 983a e3bd 5e48 253e 8f07 07bc
000001f0: 08ce ab3c 98de 833d 72ba c8bd 7298 f3bd
0.0091148745 0.0516161 0.10694483 -0.103015035 -0.024230488 -0.003897347 0.13510145 -0.08119355
0.10373058 0.0958229 -0.00011453786 -0.0051006046 0.07347963 -0.10090217 0.08739595 -0.034607362
0.057321593 -0.057393372 0.09087502 -0.09994108 0.05028395 0.04208809 0.0913604 -0.05959281
-0.063834995 0.022829192 -0.091318354 -0.101982355 -0.10527468 -0.09431325 0.038817126 0.06462755
-0.05024721 0.1508871 0.14741348 0.11377383 0.060705785 -0.12037314 0.05235332 0.090586476
0.07889439 0.06777456 -0.09716319 0.06909458 -0.11445817 0.07099114 0.051948704 0.050190885
0.08832447 0.0944095 0.038809918 0.12439721 0.121033475 0.032917358 0.0630747 -0.1052582
0.16543902 0.10800286 -0.1030563 0.10979348 0.045698468 0.123390995 0.16647367 -0.06110292
-0.016066588 0.12768792 0.008396332 0.106465235 -0.0135247065 0.09281365 -0.058127612 0.17782225
0.10092212 0.10606842 -0.10126611 0.034674913 0.020680191 -0.055914607 -0.05729923 0.152464
0.083940014 0.15886049 -0.119415596 -0.01529874 0.079874836 0.00039513316 0.06530847 0.0908498
0.14024504 0.16027537 0.08540186 0.119146526 0.16047147 -0.03904085 -0.032733746 0.05558764
-0.0529606 -0.026199605 0.015269717 -0.104398206 0.08590322 -0.07430561 0.08565395 0.0965433
0.052062802 0.008066143 -0.12754908 0.038375188 0.04224202 0.12300459 -0.07979062 -0.11406068
-0.106382795 -0.09755396 -0.0021916535 -0.010464835 0.04093597 -0.027977625 -0.10187381 0.0030885837
0.06514623 -0.1109516 0.16140887 -0.008241548 0.020972267 0.06438941 -0.098011866 -0.11894311

weight f4 [64, 128]
00000000: 01f1 b13d 5da7 953c 28f8 5ebd a2ee 9eba
00000010: e1c0 b63c ad7b fbbc d791 2b3d 49ec 273c
00000020: 80f7 203d ac8f 453d 9286 4abd 247d dcbc
00000030: b891 0e3d 0ef6 7ebc 40a4 9c3c 449a b5bd
00000040: 47ad 933d 7d1a b33d 92f1 4bbd 5a4c c53b
00000050: 7c1a 823d e3c8 a7bc e028 e93c 0190 67bc
00000060: 4c0d 203b 786a 7bbd 4c7f 47bc e52d b73d
00000070: 6cef 053d 1d97 f8bc db99 a53d 1b7a 633b
00000080: 8417 dc3d 4ac3 093d a360 833d 0b86 07bb
00000090: 928f 41bd 2967 0cbc 30d9 153d 1779 92bd
000000a0: be47 62bd 7687 8c3d c47c 25bd 7923 883d
000000b0: f59c 88bd 7862 4f3d 9192 c6bd 0b3f 903c
000000c0: bfd1 923c 9ad7 83bc cbbe 3dbd 1fee b4bb
000000d0: 98e0 b83d 4181 cb3a d79d 9fbc 787e 83bd
000000e0: 7826 e83d 1578 1e3d d7e0 7dbc 7a3e 01bd
000000f0: 2c5c ad3c 4acf d8bc b435 573d bdc3 483d
00000100: a127 18bd 4685 a53c 6195 25bd 2dbe c4bd
00000110: 4ce0 953d 17d0 99bc 3233 f53c 01ea 9b3d
00000120: fa34 2b3d a715 e63b 76f7 d0bb 97aa 103d
00000130: 725a 013d 38e8 9d3d df37 a63d 3516 a13d
00000140: 5dbe 79bc d3b9 583d dbec bf3c bf4e 7dbd
00000150: b9ca 81bc bf45 99bc 344c 3d3c a512 1c3e
00000160: 4791 dd3d c8ec 9abc 5703 493d ca52 853d
00000170: d623 ab3d cd12 8d3d 3fc2 a8bb 82e9 8b3c
00000180: d0a4 4f3d 222a 8f3d cdb1 4ebd afc1 8fbd
00000190: 5028 eb3a 19e3 963d 500f 973c e3b4 133d
000001a0: 7d7f ca3d 6633 1fbc 81d0 3cbd e777 0d3b
000001b0: 71ab 753a b981 653d 6b9c acbc 3c6b aa3c
000001c0: a85a 9f3d 93e2 cf3c 7965 a0bc 2110 cb3c
000001d0: a56f 9c3d 7dce dcbc a1b8 c93c d248 6e3d
000001e0: 6cdc 1d3d 6f45 84bd d4b2 353d 47cb 8fbc
000001f0: 8059 bd3a 46a0 0ebc b5f8 17bc a428 22bc
00000200: 80f0 2e3d b6c0 56bd e2dd cd3d d525 9d3d
00000210: c889 863c c101 93bd db83 a4bc 6a4f d13d
00000220: f55b 5a3c 719a 0fbd ea0a bf3d afc5 59bc
00000230: d5cd bd3d 5dd1 cc3d 240f bb3c e734 3dbd
00000240: 4c44 d43d 14f9 b9bc eea4 c33d a1aa d93c
00000250: dd7f 01bc f15c 783d 440b 143d 3807 4bbd
00000260: 490c b53c 84d8 bd3a c7c3 0c3c 752f 5fbd
00000270: 9553 35bd ddfe 613b 1b21 6c3d 2ac0 c1bc
00000280: 261a 9c3d b7c4 633d c93b c1bc 9e5c c73c
00000290: 4f09 b73c d280 18bd a64b 963c 9245 8b3c
000002a0: aeef 0fbd 5980 e3bc ce89 4bbd 747b 763d
000002b0: a5a7 12bd e334 ccbd 75c6 04be d3dd ab3d
000002c0: 5e5d e43c ffbe 343c d30c 3c3d f98f 55bd
000002d0: cb64 13bc 67a9 b1ba 6cee 9abc 12c7 83bd
000002e0: 956f 873d b89e 493d 24e7 c53d acaf 3f3d
000002f0: 34d2 1fbc 83dc e83d 34be 9c3d e7d7 2cbd
00000300: a644 523d 2eba 613c a6ab 9d3d 5c36 8e3b
00000310: 5066 5dbd e9bc a53a a470 e13c b04d d3bc
00000320: eaea 49bd 7465 913d 4138 4f3d 1ead 58bc
00000330: 910a 56bc 9769 463c 8fe7 d23c 7e55 c73d
00000340: 8e67 7fbc e461 16bd e003 2f3d 4a45 ddbc
00000350: a1cd 03be 6703 b83c f6df dd3d 512d 233c
00000360: b0d1 60bd 28ee 8a3c 9805 ca3d 2899 e73d
00000370: 9701 a6bc e8d7 0e3d 71e7 acbd 08d6 d83b
00000380: 9eaf cc3d 6636 68bd 3bae 89bd 4e51 213c
00000390: 3d22 df3d 9841 963c 996e 593d c385 3c3c
000003a0: f36e a03d 3308 403d 9c67 ccba f461 98bc
000003b0: 9477 3abc 6e90 053d 327a b2bd 9ed7 06bd
000003c0: d76d ac3d 5174 bb3d a832 bb3d 3988 14bd
000003d0: 504e 673d 971a e43c 988d 7a3d 88f3 953b
000003e0: dcb6 743d 3eaa a2bb 7561 d83c 8e15 2cbc
000003f0: 04cc ba3c 3e38 7f3d 2371 1abd 62b6 d4bb
0.08688546 0.018268282 -0.05443588 -0.0012125561 0.022308769 -0.030698622 0.04188713 0.010249206
0.039298534 0.04823272 -0.049444743 -0.02691514 0.034806937 -0.015561594 0.01912129 -0.088673145
0.072107844 0.087452866 -0.049790926 0.0060210647 0.06352708 -0.020481532 0.028461874 -0.014133454
0.0024421988 -0.061380833 -0.012176346 0.089443006 0.032699034 -0.030345494 0.08085986 0.0034710232
0.10746673 0.033633508 0.06414916 -0.002067926 -0.04725606 -0.008569517 0.03658408 -0.07152002
-0.0552442 0.068617746 -0.04040219 0.06647391 -0.06670562 0.050631016 -0.09695924 0.017608186
0.01792228 -0.016094018 -0.046324532 -0.0055215503 0.09027213 0.0015526192 -0.019484444 -0.064206064
0.11335462 0.038688738 -0.0154955005 -0.031553723 0.021162115 -0.02646603 0.05254145 0.049014796
-0.037147168 0.020205151 -0.040425662 -0.09606586 0.07318172 -0.018775983 0.029931638 0.07612992
0.04179857 0.007021624 -0.006377156 0.035318937 0.031580396 0.07710308 0.08116125 0.07865564
-0.01524314 0.05291159 0.023428371 -0.061842676 -0.015843736 -0.018710015 0.011553813 0.15241487
0.10818725 -0.018911734 0.04907545 0.065099314 0.083564445 0.068883516 -0.005150109 0.017079119
0.050694287 0.06990458 -0.050462533 -0.07019364 0.0017941091 0.07367534 0.018439919 0.03606118
0.09887598 -0.009716844 -0.046097282 0.002158636 0.0009371555 0.056031916 -0.02107068 0.020803086
0.07780963 0.025376594 -0.019579636 0.024787964 0.07638482 -0.02695393 0.02462417 0.058174916
0.03854029 -0.06458556 0.044359997 -0.017552985 0.0014446229 -0.008705204 -0.009275605 -0.009897385
0.042709827 -0.052429877 0.100520864 0.076732315 0.016423121 -0.07178069 -0.020082405 0.10220225
0.013327588 -0.035059396 0.093282536 -0.01329176 0.09267775 0.100008704 0.022834368 -0.04619303
0.10364589 -0.022701778 0.09552942 0.02657062 -0.00790402 0.06063551 0.036143556 -0.04956743
0.022100585 0.0014484082 0.008591599 -0.054488618 -0.044269163 0.0034484186 0.05764876 -0.023651201
0.07622175 0.055607524 -0.023588078 0.024336156 0.022343306 -0.037232228 0.018346619 0.017000947
-0.035140686 -0.027771162 -0.049691968 0.060176328 -0.03580441 -0.09971025 -0.1296633 0.08391919
0.027876552 0.011031865 0.045910668 -0.052139256 -0.008996199 -0.0013554514 -0.018912517 -0.06434454
0.066130795 0.04922363 0.09663227 0.046798393 -0.009754706 0.11370184 0.07653466 -0.042198088
0.051335 0.013777299 0.07698755 0.0043399762 -0.05405265 0.0012644801 0.027519532 -0.02579388
-0.049296297 0.07099429 0.050590757 -0.013224868 -0.013064043 0.0121101355 0.025745181 0.09733103
-0.015588654 -0.03671445 0.042728305 -0.027010579 -0.1287141 0.02246256 0.10833733 0.009959535
-0.054887474 0.016959265 0.09864348 0.11308509 -0.02026443 0.034873873 -0.084425814 0.0066173114
0.09994434 -0.056692503 -0.06722685 0.009846045 0.10895202 0.018341824 0.05308399 0.011506501
0.07833662 0.04688282 -0.0015594843 -0.018601395 -0.011381049 0.032608442 -0.08714713 -0.032920472
0.08419388 0.09153045 0.09140521 -0.036262725 0.05647117 0.02784471 0.06117019 0.0045761503
0.0597447 -0.004964142 0.026413659 -0.010503186 0.02280236 0.062309496 -0.03770555 -0.0064914683

bias f4 [64]
00000000: 79e0 c83d 50d8 163c fac0 663c 0f24 313d
00000010: 8731 38bd d606 b83d 435d 9d3c 4562 00bd
00000020: 0c54 8a3d f1f6 a8bd b2c2 593d da28 d53d
00000030: 3143 11bd 9bf5 2a3d 0d39 353c 6cbb 5fba
00000040: 6089 c0bd 77f8 0b3d 03d2 513d 36ef a1bc
00000050: ab81 d03c 77b4 00bc 60d6 053d 6a48 b63d
00000060: b061 5ebd b58e 363c 0bdd 31bd 776d dc3d
00000070: 4d4a 933d 32d1 833b 112b d63c a346 0abd
00000080: 040e 95bd d5c7 4dbd a869 853d b424 b53d
00000090: cc3c 51bd 17d4 f43c 38bb c5bd 3b97 803d
000000a0: 641e a33d 6cdd be3b 4470 5bbc d4fd 393b
000000b0: 140a 45bd 359e a13d 04d0 6e3a c51f 25bd
000000c0: 9b18 bdbd 4d2b 953d 8a12 873d d2f9 8f3d
000000d0: e983 fcbc d9b6 9d3c 410e b0bd 5caa 613d
000000e0: fc9b d53d 6ca7 ff3a 95b6 a13d 9ec6 da3c
000000f0: a1ea 293d 610e 09bc c37c 58bd 7d2b 883d
0.0980844 0.009206846 0.014084095 0.04324728 -0.044969108 0.08985679 0.01920951 -0.031343717
0.06754312 -0.08250225 0.05316419 0.104081824 -0.03546447 0.041738134 0.011060965 -0.0008534703
-0.09401202 0.0341725 0.051225673 -0.019767385 0.025452456 -0.007855526 0.032675147 0.08900531
-0.05429238 0.011142422 -0.043423694 0.10763066 0.07191906 0.0040227408 0.026143583 -0.03375877
-0.07278064 -0.050239403 0.06514293 0.08844891 -0.05108337 0.029886289 -0.0965485 0.06278845
0.07964781 0.0058247354 -0.013393465 0.0028380053 -0.048105314 0.07891504 0.0009109976 -0.0403135
-0.09233209 0.072836496 0.06595333 0.07030071 -0.030824618 0.019252228 -0.08596469 0.055094108
0.10430142 0.0019504852 0.07896153 0.026706036 0.041483525 -0.008365245 -0.052853357 0.0664892

weight f4 [32, 64]
00000000: 3fdb cf3d f998 24bc 4b6c 6ebd 651c 483d
00000010: d654 c53b 0c82 ea3c a5d7 8ebd be2c 5cbd
00000020: 0afa b5bd c2a2 4b3d 374f d43b cd7b b8bd
00000030: 76ad 093d c985 8b3d 50d3 e53c 5fd2 b03d
00000040: 0e40 91bd fad5 563c c6c5 b4bd 6746 b83d
00000050: 3fed 843d 912e dfbb 5877 003e 64dc 6dbd
00000060: 69cf d53c e5ab bf3d acd4 56bd eb13 9e3d
00000070: fa4e 7abb 6622 4fbd d8e4 fe3d 2875 69ba
00000080: 8bb2 cd3d ffde 08bd 371e 013e 71f4 8cbd
00000090: 2cad 053e 5168 bcbd a5a5 9d3b bef7 a4bd
000000a0: fb6a 8e3d d96d 933d f05d c4bd ec1b 33bd
000000b0: 90e9 09bd 8b2e b33d bb73 d33d 9aab cabd
000000c0: cda7 8b3d 5a2a cc3d 8bd3 c5bd e674 77bd
000000d0: fa7c a5bd 1b59 d13c c4bc c8bd 38f7 de3c
000000e0: ba59 f8bb 5b44 86bc b8a5 053e 9516 b3bd
000000f0: 3038 8fbc ce43 7d3c 8c67 b23d 8e0c a93d
00000100: a3f8 81bd 89cf ddbd d411 f53d 5ff0 00be
00000110: 4f37 b83d 3196 afbd 827a 193d 2f4a be3d
00000120: e6fb bc3d 9037 f03c 10f0 edbb ed0b 9abd
00000130: ad72 bbbd 8f72 8b3d fa74 25bd 2623 773d
00000140: dcca 493d 6941 91bd 62de 9abd 286a f83a
00000150: 85e9 ad3d b876 82bd 3b61 d3bd 6276 b1bd
00000160: e796 f3bd ecb4 c4bc f598 de3d 0439 c3bd
00000170: 3e22 c63c b0c6 dc3d e948 4bbd 7c3f e93d
00000180: 9952 92bd 1257 07be dbc0 0bbe 901a ff3c
00000190: 4827 d8bd e997 c63d c8d0 5a3c 0942 7fbd
000001a0: 2607 9d3d df86 fabd 866d 083d 2052 77bd
000001b0: fc15 a03d 004e bb3d 46aa de3d 78cb 47bd
000001c0: edd9 9abd c3ed 3dbd d886 5a3d be94 5ebd
000001d0: 68c4 88bd fc1a 9abd 8472 e23d 3d53 36bd
000001e0: e35e 93bd 3ebb b13d 3ad1 d4bd 59f5 08bd
000001f0: 2abe 933d bd7f 9abd 0cfb 18bd 824e e9bd
00000200: f243 ceb8 8939 0bbe 0ea0 c73d aeb9 71bd
00000210: 8e5e c73d 1b71 9cbc c0b0 04be fd93 6a3d
00000220: d34b 80bd 4c86 02ba b18e b5bd 4828 b73b
00000230: 5f5d d6bd c521 0fbe fdcc 5fbc a58a 143d
00000240: a456 67bd fcf2 c33d 732c b4bc 1673 d23c
00000250: 6a66 16bc 0bfb 673d 5993 dcbd 7352 91bd
00000260: f71d eebd 51a9 72bd 659e 793d 8c08 a9bd
00000270: acbc c93d b405 09be 1dfc 933d f5a9 9d3d
00000280: eae1 81bd c285 04be fabc b1bb 3549 a13d
00000290: 5a00 493d bb85 bd3d d590 c13d 0c89 aebd
000002a0: 7966 22bd a315 173d 5757 0ebd 24f7 73bd
000002b0: be9f c3bd f3a4 c03d 8f36 59bc c25b 56bd
000002c0: 418c 92bd 10e1 dd3d aa53 c93d 640e 0bbe
000002d0: 66b1 cf3d 66c4 7cbd b093 3cbc b937 333d
000002e0: 07c2 5dbd 44f3 b2bd 197d 643d 7c65 e2bd
000002f0: 02e2 27bd 4d9d 923d 5426 4fbd 3152 acbd
00000300: 40dc e03b 46db 1bbd 83a2 963c f499 b1bd
00000310: 1970 8f3d 8dd0 8dbc 654d b7bd 0fd6 03be
00000320: 2579 9abc eabc 433d feeb a23d 349c ad3c
00000330: 2cd7 df3d cc1c 6e3d 59d9 2c3d 8f4f a33d
00000340: 9320 a1bd e93d b03d 0b62 053c df46 c23d
00000350: 7bbf a7bd e97f 0ebd acfc c13d 6537 23bd
00000360: 1c74 ebbc 7598 863b c8d4 b23d 1b14 f6bd
00000370: 3447 55bd cca4 df3d 522b 863d 3e34 213d
00000380: f099 153c b805 0ebe bf0c fbbd 33f3 0dbe
00000390: a525 7abd 39a9 08bd b94f 123c 099e c9bd
000003a0: 1274 83bd a724 15bd 3c4e 0f3c fde0 a5bd
000003b0: a70b 9fbc 0f57 ac3d c415 5a3d 3863 5bbd
000003c0: c92e ecbd 17ed 0b3c 40d2 bfbc 8e48 dabd
000003d0: 4379 e6bd 61f9 4d3d a860 e43c 2ad5 5d3d
000003e0: be9f 05be 2dc3 acbd b6ff 813d ea5f aabd
000003f0: ced5 a4bd df91 b2bd ac73 7d3d 519a 9abd
0.1014924 -0.010046237 -0.058208745 0.048855204 0.006022076 0.028626464 -0.06974725 -0.053753607
-0.08885582 0.049715765 0.0064791697 -0.09007988 0.03361269 0.06812627 0.028054863 0.08633875
-0.070922956 0.013112539 -0.08826785 0.08997803 0.064905636 -0.006810971 0.12545526 -0.05807151
0.026099877 0.09358958 -0.052448913 0.07718643 -0.0038194046 -0.050569914 0.12445992 -0.0008905702
0.1004382 -0.03341579 0.12609182 -0.06882561 0.13054341 -0.09199584 0.004811006 -0.080550656
0.06953999 0.07198686 -0.0958823 -0.0437278 -0.03367001 0.08749112 0.10324808 -0.09896012
0.06819115 0.099690154 -0.09659489 -0.060414217 -0.08080478 0.025555184 -0.09801629 0.027217492
-0.0075790556 -0.016390016 0.13051498 -0.087445416 -0.017482847 0.01545806 0.08711156 0.08254348
-0.06346252 -0.108306 0.11966291 -0.12591694 0.08994924 -0.085735686 0.03747035 0.09291493
0.09227733 0.02932337 -0.0072612837 -0.07521806 -0.09152732 0.0680896 -0.04039476 0.060336255
0.049265727 -0.07092554 -0.075619474 0.0018952535 0.08491806 -0.063703 -0.103212796 -0.08665158
-0.11894017 -0.024012052 0.10869018 -0.09532359 0.02418625 0.10780084 -0.04963008 0.11389062
-0.071446605 -0.13216808 -0.13647787 0.031140596 -0.10554367 0.09696943 0.013355441 -0.062318835
0.07667379 -0.12232756 0.033307575 -0.060381055 0.07816693 0.09145737 0.10872321 -0.048778027
-0.07561097 -0.046369325 0.053351253 -0.05434107 -0.066780865 -0.07524678 0.11056998 -0.044512976
-0.071958326 0.08678292 -0.10391469 -0.033437107 0.07214005 -0.075438954 -0.037348792 -0.11391927
-9.835501e-05 -0.13596167 0.09747325 -0.05901497 0.09734832 -0.019096902 -0.1295805 0.05727004
-0.06264462 -0.0004979118 -0.08865107 0.0055895187 -0.10467028 -0.13977726 -0.013659713 0.036265034
-0.05647911 0.0956783 -0.021993851 0.025689643 -0.009179691 0.056635898 -0.10770292 -0.07095804
-0.11626809 -0.059243504 0.060942072 -0.08253583 0.098504394 -0.13381082 0.07225821 0.07698432
-0.06341918 -0.1294165 -0.005424139 0.07875291 0.0490726 0.09254023 0.09451453 -0.08522233
-0.039648507 0.03688587 -0.034751263 -0.059561864 -0.09551953 0.094064616 -0.013257637 -0.0523336
-0.071556576 0.10833943 0.09830411 -0.13579708 0.10141258 -0.061710738 -0.011509821 0.043754313
-0.054140117 -0.087378055 0.055783365 -0.11054513 -0.040987022 0.07158909 -0.050573662 -0.08414114
0.0068621933 -0.038050912 0.018388039 -0.08671942 0.07003803 -0.017311359 -0.08950309 -0.12874626
-0.018856594 0.047787584 0.07955168 0.021192648 0.10929713 0.05813293 0.042199466 0.07974159
-0.07867541 0.086055584 0.008141051 0.09486174 -0.08190819 -0.034789953 0.094720215 -0.03984775
-0.028741889 0.0041075298 0.08731991 -0.120155536 -0.052069858 0.109201044 0.065512314 0.039356463
0.00913094 -0.13869369 -0.122582905 -0.13862304 -0.061071057 -0.03336451 0.00893014 -0.09844596
-0.06418623 -0.036411908 0.00874668 -0.08099554 -0.019414736 0.084150426 0.053243414 -0.05356142
-0.11532361 0.008540413 -0.023415685 -0.1065837 -0.112535976 0.050286654 0.02787812 0.054158367
-0.13049218 -0.08435664 0.06347601 -0.083190754 -0.080485925 -0.08719229 0.06187789 -0.07548965

bias f4 [32]
00000000: 9b04 063e 8ee0 a2bc 54da aebd cd02 083d
00000010: f180 3dbd 3d5f 983d 5291 113d 4d79 023e
00000020: d371 753d d276 fb3d 7309 2fbd 1e00 123c
00000030: e304 613d 2f14 833d 588d a8bd e868 00be
00000040: 0ab6 dfbd c25f 9d3d 8a33 95bd 72a6 9bbc
00000050: 1b6d 283d 8bd9 263d b103 0f3e afda ca3d
00000060: 2d08 6cbd 0df2 b03b 723b 633d 715e c5bc
00000070: 835a f1bb 03f5 1bbd 5cf2 a23d ee29 c13c
0.13087694 -0.019882467 -0.085377365 0.033205796 -0.046265546 0.0744004 0.03553898 0.12741585
0.059923004 0.122785226 -0.04273362 0.008911161 0.0549363 0.06400334 -0.08230084 -0.12540019
-0.10923393 0.0768428 -0.07285221 -0.019000266 0.041119676 0.04073481 0.13966252 0.09904992
-0.057624985 0.0053999485 0.055476613 -0.024092885 -0.007365526 -0.03807546 0.07956383 0.023579564

weight f4 [1, 32]
00000000: 2e13 763d e2fa 43bd 1920 9bbd ba48 8ebd
00000010: 2fb1 c13d 107a 2fbc b632 26bd 6ff0 f8bd
00000020: d352 f4bd 02b4 52bd 1946 723c 938a 3b3e
00000030: d32f 993d 8d18 893d ec05 40be 3752 82bd
00000040: f003 5b3c bbfe d6bd 099f f63d 1ea3 813c
00000050: c06f 16be 4042 0abe 714a ab3d eaee 303e
00000060: 9447 1bbe d39c 6f3d f96a f6bd 1447 f23d
00000070: 3986 323e 000c 5a3c c3ad f8bd 041b 1e3e
0.060076885 -0.047846682 -0.075744815 -0.06947465 0.09457623 -0.010710254 -0.040575705 -0.12155234
-0.1192986 -0.0514412 0.01478722 0.1831458 0.07479825 0.06694136 -0.18752259 -0.063633375
0.013367638 -0.10497805 0.12042052 0.01582485 -0.14691067 -0.13501835 0.08363808 0.17278638
-0.15164024 0.05849917 -0.12032122 0.11829963 0.17434014 0.013308525 -0.121425174 0.15439993

weight f4 [1, 32]
00000000: 4b1d 873c 6129 cfbd 4998 ba3d dfce 2f3e
00000010: 49c4 3bbc 3073 25be 7992 133c cc60 17be
00000020: 1c21 773d 6bba 5f3c 8c63 163d 32ff 7bbd
00000030: dd0d 08bc e481 d5bd 94e5 e6bd bfc4 123e
00000040: 13d0 2c3e 4c7b 5cbb 0a4e 91bc afd4 a83d
00000050: 1609 b3bd f966 073e 42a5 453e da0e f4bd
00000060: 8f75 3b3d 6540 8c3c 9c76 b33d 83c9 823c
00000070: b037 ca39 30a1 b5bd 828a a3bd 42b1 153e
0.01649346 -0.10115314 0.09111077 0.17168759 -0.011460372 -0.16157222 0.00900709 -0.14783019
0.06033431 0.013655285 0.03671603 -0.06152267 -0.0083040865 -0.10425165 -0.11274257 0.14332865
0.16876249 -0.0033642827 -0.017737407 0.08243691 -0.087419674 0.13222875 0.19301322 -0.11916895
0.04576641 0.01712055 0.08762857 0.015965229 0.00038569933 -0.08868635 -0.07985403 0.146184

weight f4 [1, 32]
00000000: 9ae9 153d 9a15 823c c947 d3bc dc4a d7bd
00000010: 4826 1abe f689 88bd 2783 443e 274a 2f3e
00000020: ca30 d03d ac31 1a3e 6b2b 4bbc 2aa6 ff3c
00000030: aa2c 9fbc 0700 23be 4299 c8bd bc15 e5bd
00000040: 60b4 46bc 51e7 f1bd faf4 d23d 3c38 19be
00000050: a47c 29bd 2607 fbbc f45b bd3d 9fd4 483e
00000060: 662e b73d a665 233e 3feb f33d 989a b2bd
00000070: f953 0d3e cd3f 3d3e 1a06 a53d 4cd8 393e
0.036599733 0.015879441 -0.025791066 -0.10512325 -0.15053666 -0.06666939 0.19190656 0.1711813
0.10165556 0.15058011 -0.012400488 0.031207163 -0.019430477 -0.15917979 -0.097948566 -0.11185786
-0.012127966 -0.11811698 0.10300632 -0.14962858 -0.041378632 -0.030643057 0.09246054 0.19612359
0.08944397 0.15956745 0.11910104 -0.08720893 0.13801564 0.1848137 0.080578044 0.18148917
